TrainData.pth (torch, 4647 bytes, 6 tensors)

l1.weight f4 [8, 39]
0.13392776 0.33345258 0.84495896 0.4174407 -0.7914352 -0.845695 0.8977748 -0.7695873
-0.7382421 0.6213023 0.2581327 -0.4156831 -0.46131086 -0.4115633 -0.6455693 0.37324783
0.3099826 0.064227805 -0.15624177 0.5164921 0.5748476 -0.44983914 0.263129 0.2839466
0.22341831 0.61087865 0.5541888 0.5362584 0.17431332 -0.4326298 -0.095793515 -0.3565539
-0.45215872 0.5021562 -0.14572151 0.39542577 0.43674138 0.6450737 1.3599998 0.8257763
-0.54083306 -0.2288819 -0.55180407 0.8807141 0.8701945 -0.20026033 -0.21013966 -0.13891564
-0.31883138 -0.73620164 -0.32668447 -0.60437804 -0.1523576 0.38482267 -0.142413 -0.6675684
0.3061199 0.4862807 -0.052652966 -0.26947996 -0.39904037 0.25598624 0.72870874 0.21934608
-0.1570813 -0.10890871 -0.25050405 0.26763177 0.36296335 0.9378621 0.42569283 -0.51738125
0.9664436 0.25453332 0.43256587 0.5123015 0.44179645 -0.73617595 -0.3668485 0.40757585
-0.46851563 0.68219084 -1.0528413 0.6691392 -0.51668465 -0.34259468 -0.34293786 -0.46140334
-0.68755 0.32763594 0.62925994 0.31344256 -0.55957156 -0.053067822 0.35181513 0.45654568
0.09487637 -0.28192836 0.5071552 0.6534146 0.11145125 0.0628962 0.2734165 -0.118733205
-0.32096073 -0.52727866 0.40364623 0.22108169 0.98993814 0.047051433 0.5613833 0.2544012
0.19784744 0.87598735 0.021817343 0.47851247 -0.74541056 -0.67654973 0.41600412 0.8397553
0.6081726 0.09326299 -0.82316923 0.9672725 -0.15033272 -0.15063529 0.9495131 0.42248127
-0.6193404 -0.6515456 -0.45075378 -0.82534295 0.2229102 0.33853355 0.38289616 -0.02969758
0.72086066 0.38044676 -0.47375774 -0.035880674 -0.29763415 -0.0029213678 0.44024447 0.57021046
0.9373524 0.1031354 -0.16542953 -0.5997986 -0.12350455 -0.50742215 -0.17841277 -0.19953313
0.47519365 0.0021849533 0.24589397 0.79059875 -0.559309 0.3070282 0.14946865 0.47147888
0.92659926 -0.3471162 0.29740214 -0.31747094 -0.3073591 0.18071349 1.3732263 0.47349644
0.51312906 0.3956768 -0.97562444 0.29238045 0.35023272 0.27179387 0.1922485 0.43120253
1.0001277 0.43325076 0.66171235 -0.15824696 0.043131273 0.6233189 0.43563908 0.16522387
0.45903054 0.5966638 -0.07372992 0.12524195 0.42993143 0.2972606 -0.0036221023 0.3860824
-0.18682131 -0.14729656 -0.2524724 -0.660783 -0.37980425 0.3939808 -0.008900881 1.1831789
1.1566488 0.49805292 0.048813924 0.108717665 0.385082 0.551875 -0.57871294 -0.41556007
-0.6533451 -0.43409538 0.009389526 -0.5418594 0.35126114 0.112018295 0.36963588 -0.013075575
-0.6311413 0.19159429 0.73395455 -0.104685836 0.08706244 0.43483165 0.2972201 0.072167344
0.36780488 -0.81836325 0.55385447 -0.46653506 0.22718537 0.30673456 -0.46472403 -0.22213158
0.19829358 -0.74353045 -0.87389416 0.5516458 -0.5860855 0.9881063 -0.9264502 0.9502959
-0.5732045 0.009649262 -0.10747017 -0.5809173 -0.5797466 0.71109045 0.44042537 0.7796547
-0.34340292 -0.0029475794 0.65041584 0.20305982 0.2789885 -0.23764156 0.92737556 0.54482037
00000000: 5c24 093e 4cba aa3e 3b4f 583f caba d53e
00000010: 7f9b 4abf 787f 58bf 92d4 653f ac03 45bf
00000020: 6ffd 3cbf ab0d 1f3f f829 843e 6ad4 d4be
00000030: f030 ecbe 6db8 d2be 0844 25bf 571a bf3e
00000040: 0ab6 9e3e de89 833d d8fd 1fbe d438 043f
00000050: 3629 133f 5151 e6be d8b8 863e 7361 913e
00000060: c5c7 643e 8b62 1c3f 51df 0d3f 3b48 093f
00000070: 317f 323e a781 ddbe 642f c4bd 3c8e b6be
00000080: 5981 e7be 4f8d 003f 0538 15be 3f75 ca3e
00000090: 919c df3e 8d23 253f 7914 ae3f 1366 533f
000000a0: 0974 0abf 0460 6abe 0843 0dbf 7b76 613f
000000b0: 11c5 5e3f 0b11 4dbe da2e 57be e73f 0ebe
000000c0: de3d a3be b677 3cbf 3043 a7be 85b8 1abf
000000d0: a103 1cbe 7a07 c53e b7d4 11be c3e5 2abf
000000e0: bfbb 9c3e c9f9 f83e a3aa 57bd 47f9 89be
000000f0: 054f ccbe a110 833e a88c 3a3f 429c 603e
00000100: ecd9 20be 880b dfbd 1142 80be 0807 893e
00000110: 55d6 b93e bb17 703f 69f4 d93e 1973 04bf
00000120: d968 773f 3152 823e 4679 dd3e 3126 033f
00000130: 2533 e23e 0776 3cbf 91d3 bbbe c8ad d03e
00000140: 48e1 efbe 0fa4 2e3f 81c3 86bf b54c 2b3f
00000150: 7245 04bf 9268 afbe 8d95 afbe 0f3d ecbe
00000160: 4703 30bf e6bf a73e 2e17 213f 8b7b a03e
00000170: 1540 0fbf a55d 59bd 1d21 b43e 5bc0 e93e
00000180: 8b4e c23d ea58 90be ecd4 013f 2e46 273f
00000190: 8e40 e43d b9cf 803d 3ffd 8b3e 652a f3bd
000001a0: f754 a4be bcfb 06bf b8aa ce3e 3d63 623e
000001b0: 966c 7d3f 01b9 403d d1b6 0f3f e040 823e
000001c0: 8598 4a3e b540 603f 49ba b23c 96ff f43e
000001d0: 3ad3 3ebf 5d32 2dbf 7efe d43e 34fa 563f
000001e0: 33b1 1b3f ab00 bf3d 38bb 52bf 2c9f 773f
000001f0: d2f0 19be 2340 1abe 4a13 733f 774f d83e
00000200: 188d 1ebf b1cb 26bf 33c9 e6be ad49 53bf
00000210: 9242 643e 4554 ad3e f70a c43e 5748 f3bc
00000220: 538a 383f ebc9 c23e 6090 f2be 9df7 12bd
00000230: 8163 98be 6b74 3fbb b967 e13e 50f9 113f
00000240: 54f6 6f3f a738 d33d 5c66 29be 678c 19bf
00000250: f4ef fcbd 6be6 01bf d6b1 36be 6a52 4cbe
00000260: 954c f33e 6f31 0f3b a1cb 7b3e ae64 4a3f
00000270: e02e 0fbf cd32 9d3e 4f0e 193e ae65 f13e
00000280: 9c35 6d3f 37b9 b1be 1845 983e 8d8b a2be
00000290: 2c5e 9dbe f50c 393e e1c5 af3f 206e f23e
000002a0: 6d5c 033f 2696 ca3e 86c2 79bf e4b2 953e
000002b0: b451 b33e 9128 8b3e cadc 443e 94c6 dc3e
000002c0: 2f04 803f 0bd3 dd3e fb65 293f 7e0b 22be
000002d0: 6baa 303d d491 1f3f 160c df3e 7230 293e
000002e0: 0d06 eb3e f5be 183f b6ff 96bd 6d3f 003e
000002f0: f91f dc3e 8b32 983e cb60 6dbb 98ac c53e
00000300: 164e 3fbe e9d4 16be 1044 81be 1329 29bf
00000310: b475 c2be dab7 c93e 00d5 11bc 6872 973f
00000320: 110d 943f cb00 ff3e 1cf1 473d 5ea7 de3d
00000330: 7829 c53e ae47 0d3f 8826 14bf 4ac4 d4be
00000340: a041 27bf c041 debe 87d6 193c 4cb7 0abf
00000350: 80d8 b33e d969 e53d ea40 bd3e f03a 56bc
00000360: 7a92 21bf 4b31 443e 72e4 3b3f 8765 d6bd
00000370: cb4d b23d 41a2 de3e 3c2d 983e 79cc 933d
00000380: ec50 bc3e 4180 51bf 68c9 0d3f afdd eebe
00000390: 48a3 683e 500c 9d3e 4ff0 edbe 7676 63be
000003a0: 790d 4b3e 0358 3ebf 87b7 5fbf a938 0d3f
000003b0: b309 16bf 89f4 7c3f d72b 6dbf 9846 733f
000003c0: 88bd 12bf f017 1e3c 5219 dcbd ffb6 14bf
000003d0: 466a 14bf 060a 363f 6f7f e13e 7397 473f
000003e0: 82d2 afbe 2d2c 41bb a781 263f eaee 4f3e
000003f0: 95d7 8e3e 4f58 73be 7c68 6d3f 5979 0b3f

l1.bias f4 [8]
0.8457449 0.7363229 0.7454854 0.823146 1.2557044 0.65611863 0.5858651 0.98403716
00000000: bd82 583f a87f 3c3f 22d8 3e3f b2b9 523f
00000010: ecba a03f 64f7 273f 41fb 153f dce9 7b3f

l2.weight f4 [8, 8]
0.9968223 -1.6812724 -0.17837127 1.3677508 1.2980276 -0.6726781 0.75466424 0.9419444
1.452867 0.35513237 -0.7951186 1.7859864 0.9556122 0.5340765 -1.6999279 0.45217398
-0.8912858 1.6037042 0.84422904 -1.065813 0.83507645 1.6824832 0.689325 1.4076924
0.52745277 -0.43310115 -0.17064393 -0.16857867 0.46993387 -1.7986809 0.025722967 1.8656412
-0.50722474 0.38222995 1.3812994 -0.026788378 1.2920576 0.15539178 1.83738 -0.30359846
0.010059327 -0.03420356 0.036281347 -0.05871144 -0.10478431 -0.03929043 0.062731355 -0.3159576
1.6636709 0.55821973 1.1463755 0.96274817 0.45552775 -1.0182991 0.6116164 -1.1621073
-0.09230751 0.083447605 0.024459302 0.03557372 0.098073155 -0.34809592 -0.07899812 -0.059005678
00000000: bf2f 7f3f ef33 d7bf f5a6 36be 7512 af3f
00000010: c525 a63f a234 2cbf ad31 413f 4523 713f
00000020: 8cf7 b93f e9d3 b53e e48c 4bbf 349b e43f
00000030: 00a3 743f 3db9 083f 3d97 d9bf 5983 e73e
00000040: 4e2b 64bf 2e46 cd3f 651f 583f 8f6c 88bf
00000050: 92c7 553f 9c5b d73f 9a77 303f 442f b43f
00000060: 2507 073f 6fbf ddbe 48bd 2ebe e39f 2cbe
00000070: 2c9b f03e 2d3b e6bf f9b8 d23c 55cd ee3f
00000080: 7bd9 01bf a5b3 c33e 6bce b03f 4d73 dbbc
00000090: 2562 a53f 061f 1f3e 452f eb3f 4271 9bbe
000000a0: e0cf 243c 0819 0cbd c09b 143d 687b 70bd
000000b0: 2899 d6bd 00ef 20bd 4c79 803d 32c5 a1be
000000c0: 2bf3 d43f 7de7 0e3f 6fbc 923f aa76 763f
000000d0: ef3a e93e a057 82bf e492 1c3f efbf 94bf
000000e0: b80b bdbd 94e6 aa3d e05e c83c c0b5 113d
000000f0: 94da c83d a139 b2be c4c9 a1bd f0af 71bd

l2.bias f4 [8]
0.05364791 0.4779415 0.62409174 0.3874657 0.059455138 -0.026546985 0.6875461 -0.29252857
00000000: e9bd 5b3d c0b4 f43e 7ac4 1f3f e761 c63e
00000010: 3b87 733d 1079 d9bc 0503 303f 4ec6 95be

l3.weight f4 [10, 8]
0.42432177 0.6537912 -1.2634135 -1.651805 -0.83873737 0.053357482 0.3974832 0.347495
-0.8827483 0.40358222 0.5304586 -1.0360798 -0.23905306 0.11817613 -1.8194251 -0.14641634
-1.6054605 -1.6535485 0.6900853 -0.85949695 0.5161745 -0.1747093 -1.1632701 -0.2869761
0.471694 0.26695526 -0.38747856 0.37993586 -0.6713683 0.22315362 -1.0418366 0.03333056
0.35074806 -1.3252918 -0.014182949 0.6106113 0.38134792 0.21554688 -0.47689244 -0.19099371
-0.73018837 -0.18426356 0.5427442 1.0794305 -1.6680834 -0.30527994 -1.7224082 -0.08169982
-1.4443003 0.24117008 0.005197508 -0.33378592 -0.5515892 -0.24677873 0.6270793 0.008488327
0.09920726 -0.46231705 -1.2879198 -1.2272892 0.78444487 0.07826036 0.52928555 0.14307973
-1.4839882 -1.9439249 -0.08242714 -1.0720856 0.6878746 0.21473083 0.7902829 -0.20125027
0.55716336 0.3105704 -2.1593573 0.65070534 -1.8590342 0.2148166 -0.0004188137 -0.084549665
00000000: b440 d93e dc5e 273f 89b7 a1bf 596e d3bf
00000010: 7eb7 56bf 608d 5a3d eb82 cb3e ddea b13e
00000020: cbfb 61bf 54a2 ce3e 23cc 073f 439e 84bf
00000030: 53ca 74be 5406 f23d ece2 e8bf 2aee 15be
00000040: bb7f cdbf 7aa7 d3bf 6ea9 303f fe07 5cbf
00000050: 0324 043f ffe6 32be 09e6 94bf 88ee 92be
00000060: e081 f13e 5cae 883e 9763 c6be f486 c23e
00000070: cbde 2bbf 6282 643e e75a 85bf a085 083d
00000080: 4095 b33e 29a3 a9bf 9a5f 68bc 0651 1c3f
00000090: 0940 c33e 52b8 5c3e 3f2b f4be db93 43be
000000a0: a0ed 3abf 96af 3cbe 49f1 0a3f c72a 8a3f
000000b0: c283 d5bf a74d 9cbe df77 dcbf 3c52 a7bd
000000c0: d5de b8bf 4af5 763e db4f aa3b fde5 aabe
000000d0: f334 0dbf 90b3 7cbe 4588 203f a012 0b3c
000000e0: 2d2d cb3d d2b4 ecbe 8eda a4bf d017 9dbf
000000f0: 61d1 483f f846 a03d 427f 073f 7e83 123e
00000100: 53f3 bdbf 88d2 f8bf 8fcf a8bd 1a3a 89bf
00000110: 8d18 303f 66e2 5b3e fb4f 4a3f 8d14 4ebe
00000120: 42a2 0e3f 1503 9f3e e932 0ac0 a094 263f
00000130: d5f4 edbf e2f8 5b3e 3994 dbb9 6028 adbd

l3.bias f4 [10]
0.5213272 -0.014904876 0.28869393 -0.34982243 -0.1242535 0.16786094 0.0015787086 -0.4912625
-0.14326097 0.16539095
00000000: b375 053f 9533 74bc b1cf 933e ed1b b3be
00000010: 9e78 febd bde3 2b3e acec ce3a c286 fbbe
00000020: 01b3 12be 3f5c 293e
